Flappy-Bird-Game/dqn_flappy_bird.pth (torch, 73333 bytes, 6 tensors)

net.0.weight f4 [128, 5]
000000 49 8b 0b 41 79 ad d1 3f 64 ce a9 be 3f 10 aa c0
       8.721505 1.6381065 -0.33165276 -5.314483
000010 a8 63 38 c0 cd b2 d5 c0 50 24 5a c0 98 01 a5 3f
       -2.8810825 -6.6780763 -3.4084663 1.2891111
000020 fc 4e 79 3e 43 ef 84 bf cf c9 da 3e d5 fb 1e bf
       0.24346536 -1.0385517 0.42732093 -0.62103015
000030 5b c4 6e 3f 8a 30 0a 40 a4 a1 18 40 81 8a 4e 3d
       0.93268365 2.1592126 2.3848658 0.050425056
000040 d0 25 03 3e 15 1e af be 1e ab fe be 26 d9 a3 bd
       0.12807393 -0.34202638 -0.49739927 -0.08000402
000050 dd 51 48 3e 04 8f 9f be f3 00 93 be 4b 23 56 be
       0.19562478 -0.311638 -0.28711662 -0.209119
000060 46 8d cf 3d fa f8 2c 3e 50 22 17 40 cc 76 55 40
       0.10134368 0.16891852 2.3614693 3.3353758
000070 f8 fd e7 3e 26 19 c7 3f bf 4a 5f be 6f 0e 0e 3f
       0.4531095 1.555455 -0.21805857 0.55490774
000080 19 39 11 40 02 7d 9d bf 90 5d c3 bf 5f 49 98 be
       2.26911 -1.2303774 -1.5262928 -0.29743478
000090 f5 12 ba bb 20 93 d2 3a 4f 47 60 be 96 9b 6b bd
       -0.0056785294 0.0016065575 -0.21902202 -0.057521425
0000a0 25 76 03 c0 5a e5 0c bf ce d1 30 40 a1 b8 30 40
       -2.054086 -0.5503746 2.7628055 2.7612689
0000b0 43 c3 44 be af 67 5f c0 02 ae 50 bf 0f 3a 0e c0
       -0.19215111 -3.4907033 -0.81515515 -2.2222936
0000c0 6d a4 ac be f9 3c 46 bf 94 d9 34 be b8 62 3e be
       -0.33719197 -0.77436787 -0.17661124 -0.18592346
0000d0 bf c0 93 3e 8c 9f be 3e 6e b4 91 be 2b 06 93 3f
       0.2885799 0.372311 -0.2845797 1.1486257
0000e0 ac 4b 55 3f ec ff 80 40 b1 af e8 3f 5c 75 a9 3f
       0.8331859 4.0312405 1.8178617 1.323894
0000f0 48 d9 91 be 1b b8 70 be 9a 67 6e be 4c 15 01 be
       -0.28486085 -0.2350773 -0.23281708 -0.1260578
000100 4c f7 03 3d bc 68 c8 3e 23 ec bb bf 59 c9 95 bf
       0.032218263 0.39142406 -1.4681438 -1.1702071
000110 b4 94 94 3f 30 ef ba be 40 8b 37 bb 5c ac 12 be
       1.160788 -0.3651061 -0.0028006583 -0.14323562
000120 09 39 67 be f8 f6 a0 bc 37 69 d1 be 6e 91 81 bf
       -0.22580351 -0.019649014 -0.40900585 -1.0122507
000130 04 07 66 bf 35 14 58 c0 ac f0 03 3f cc 88 68 bf
       -0.89854455 -3.3762333 0.5153911 -0.90833735
000140 df 74 4f 40 2d e7 ef 3f 41 5e ee bf ba 6b ac bf
       3.2415082 1.8742424 -1.8622514 -1.3470376
000150 88 03 8a 3f 50 a1 0e be 6c 35 4a be d3 dc 02 be
       1.0782328 -0.13928723 -0.19746941 -0.1277955
000160 92 e7 cc be 0e 8e 35 be a5 c8 3e 3f 59 6c 72 be
       -0.40020424 -0.17729971 0.7452491 -0.23674144
000170 03 05 3e c0 17 45 9e 3f 86 53 8d 3f b3 8f 13 40
       -2.969056 1.2364835 1.1041114 2.3056457
000180 4b 04 48 c0 b1 ba c7 c0 27 c4 81 c0 7f 94 15 c0
       -3.125262 -6.2415395 -4.0551944 -2.3371885
000190 50 54 b4 bf 1a 36 83 bf 49 67 a2 3f ae bf 97 bd
       -1.408823 -1.0250885 1.268777 -0.07409607
0001a0 eb 27 9f bf 09 9c 4a bf ae 42 0a bf 4c 1a b7 3f
       -1.2434057 -0.7914434 -0.54007995 1.43049
0001b0 23 4b 8b bf 7f 55 43 bf a4 60 9b bf 94 aa 59 be
       -1.0882305 -0.7630233 -1.2138867 -0.21256477
0001c0 a1 22 bf 3e e9 cf 00 be d7 a4 8a bc 88 76 cd be
       0.37331107 -0.12579311 -0.016924305 -0.40129495
0001d0 32 bb 7a 3e a6 fb 94 3e 4c 84 4a be 7b 2e 98 be
       0.24485472 0.29098243 -0.1977703 -0.29722962
0001e0 bb 94 48 3e 3f 51 33 be 93 d5 6e 3e db 0b 0b be
       0.19587986 -0.17511462 0.2332366 -0.13578741
0001f0 22 92 82 be 37 ac 5b c0 39 4f f5 bf 24 5b 0f c0
       -0.25502115 -3.4323862 -1.9164802 -2.2399378
000200 f1 a1 da 3f ab 67 65 bc 52 ee 6c be 33 b3 ba bd
       1.708067 -0.014001767 -0.23137787 -0.09116211
000210 fb e9 88 be a8 98 5f bb 5f 6e 98 be 1e 93 1d c0
       -0.26741013 -0.003411809 -0.29771706 -2.4621043
000220 a3 0a db bf 3f 05 ca c0 a2 e7 2f bf 3d 74 80 bf
       -1.7112621 -6.3131404 -0.6871282 -1.0035473
000230 4b 12 5b c0 37 d8 b5 bf 37 cb 9b c0 7f 95 23 bf
       -3.4229915 -1.4206609 -4.8685565 -0.6389999
000240 4f 1b ba be 5c 4a 96 c0 f2 f0 17 c0 4e 4d 62 c0
       -0.3634896 -4.696577 -2.3740811 -3.5359683
000250 27 06 61 40 52 b1 d6 3f b1 c1 3e c0 ab e9 98 bf
       3.5160005 1.6772864 -2.980572 -1.194631
000260 32 b5 7a 3e fa 1b cb 3e f7 af 04 3e 39 f6 bf 40
       0.24483183 0.39669782 0.1295775 5.9988065
000270 fb 57 31 40 f1 a0 6f bf f3 a3 6e c0 ae 5e dd bf
       2.770995 -0.9360495 -3.7287567 -1.7294519
000280 92 35 f5 bf 69 52 cd bf bf 08 11 c0 f1 96 4c 3f
       -1.9156973 -1.6040775 -2.2661588 0.7991782
000290 66 47 21 3e e7 86 27 c0 d9 22 fb be d4 16 18 c0
       0.15749893 -2.6176088 -0.49050024 -2.3763933
0002a0 b1 9c a1 be 2c 46 dd be e8 a6 ce be 97 83 10 3e
       -0.3156486 -0.432176 -0.40361714 0.14112698
0002b0 3f 0b 5b be 25 9b 87 be 99 3b 3a bd 8a 96 47 c0
       -0.21391009 -0.26485553 -0.045466993 -3.1185632
0002c0 b2 b7 27 c0 8a 6f f6 3f cc c9 1c 40 35 dc 30 3f
       -2.6205869 1.9252789 2.4498167 0.6908601
0002d0 66 67 18 bf 39 1f 51 bf dd 13 3b 3d 48 00 55 bb
       -0.59532773 -0.81688267 0.04567324 -0.0032501388
0002e0 99 64 bf be e7 4f 74 c0 09 65 8c bf 9c cd df 3d
       -0.37381437 -3.8173769 -1.0968333 0.10927889
0002f0 5d 4a 9c 3f 74 08 e8 bc 89 ed cc be 0f 72 11 be
       1.2210194 -0.028324343 -0.40024975 -0.14203666
000300 f1 28 32 40 a9 48 e6 bf f3 55 0d c0 bc 29 82 be
       2.7837489 -1.7990924 -2.208371 -0.25422466
000310 28 0f 0a 3e d8 a9 13 40 a9 11 91 3f 32 86 c2 bc
       0.13482344 2.3072414 1.1333514 -0.02374563
000320 0d bb 23 c0 1b 6d 4b c0 b7 6c 52 3e fe 9d a2 3f
       -2.5582917 -3.1785343 0.20549284 1.2704465
000330 f0 57 77 3e d9 0a 71 bf 72 6f fa 3d 21 34 83 bf
       0.24154639 -0.9415718 0.12228288 -1.0250283
000340 7a ac aa 3e 06 af 1c be 43 bf ce 3d b5 4f 56 bd
       0.33334714 -0.15301141 0.10095074 -0.05232211
000350 69 86 a7 3f cb fc 5a bb 92 47 17 bf 41 8f fc 3f
       1.3087894 -0.0033414837 -0.5909358 1.9731218
000360 01 16 1e 3f 93 41 15 c0 17 a6 9f be 7f 72 0a 3f
       0.61752325 -2.3321273 -0.31181404 0.5408096
000370 6e db 4c c0 02 21 5e bf c5 ff 05 c0 19 b5 f8 3f
       -3.200893 -0.86769116 -2.093736 1.9430267
000380 56 71 d8 3f e5 c0 e6 be 16 2a 2d 3f d4 8e e5 bf
       1.6909587 -0.45069042 0.67642343 -1.7934213
000390 6c d3 86 be b7 04 ad 3f 61 9b 65 40 19 3e 70 3f
       -0.26333177 1.3517064 3.5876086 0.93844754
0003a0 8f 4c bd 3f 38 52 db bf 0e 1b 1b bf 1f 27 8d bf
       1.4788989 -1.7134466 -0.6058816 -1.1027564
0003b0 43 13 ec 3d 5b 0c 2f 40 21 1a 44 3f b7 50 1a bf
       0.115271114 2.735129 0.7660237 -0.6027941
0003c0 10 2f 19 bf d5 36 13 bf fe 05 b4 3f c9 db 3a 3f
       -0.59837437 -0.5750554 1.4064329 0.72991616
0003d0 8e 1f 25 bf 59 e9 14 40 b4 0d 02 3f cd 0b b7 40
       -0.64501274 2.3267424 0.5080216 5.7201905
0003e0 55 2b 12 c0 81 16 af bf 90 3b af bf 39 dc 3a c0
       -2.2838948 -1.3678743 -1.3690052 -2.9196913
0003f0 19 a1 66 c1 e2 15 bb 3d 91 8e 36 bf 4f 25 d2 bf
       -14.4143305 0.09135033 -0.7131129 -1.6417636

net.0.bias f4 [128]
000000 e2 97 e0 3f 85 e6 a8 bf 42 91 da 3f d1 26 a4 be
       1.7546351 -1.3195349 1.7075579 -0.32060865
000010 04 af e3 be 56 d6 ed 3f 4c a8 08 c0 b3 c3 50 bd
       -0.44469464 1.8581035 -2.135272 -0.050967883
000020 80 d8 7d c0 b5 29 b0 be da 29 d4 be 46 43 5e bd
       -3.966339 -0.3440682 -0.4143818 -0.054263376
000030 ec 29 c4 be a5 c3 ed bf 61 68 63 bd 81 91 4c bf
       -0.38313234 -1.8575331 -0.055519465 -0.7990952
000040 8d 89 14 40 98 5f b8 be a1 b8 b5 3f e2 85 1c c0
       2.3208954 -0.36010432 1.4196969 -2.4456716
000050 0d 3e b9 bf 5b ee b1 bf 44 e3 05 bf 63 55 cd be
       -1.4472061 -1.3900865 -0.52299905 -0.40104207
000060 d9 16 dd be 00 c8 04 c0 8c b7 c3 be cf d9 9d bf
       -0.43181494 -2.074707 -0.38225973 -1.2332095
000070 8c c1 8e bf f4 d1 ea bf d9 42 b4 bf ea ef 00 40
       -1.1152816 -1.8345323 -1.40829 2.0146432
000080 9b 58 c8 bf ed 52 85 be 01 8e a1 bd 22 5c f9 bf
       -1.565204 -0.2603983 -0.07888413 -1.9481242
000090 0e 65 0a bf e7 ca ce bf a1 45 0d c0 d2 2d 41 c0
       -0.5406045 -1.6155671 -2.2073748 -3.0184216
0000a0 6c 7a 03 c0 47 6a be bd 54 94 ae bf b3 1f fc 3f
       -2.054347 -0.092976145 -1.3639016 1.9697174
0000b0 02 68 dd 3f 5d 3d cb 3f 20 9d 4f 3f 7c 45 1d c0
       1.7297366 1.5878102 0.8109913 -2.457366
0000c0 02 e0 da bf 3e 3b 5e bf 4b 50 cc be 37 c1 8c be
       -1.7099612 -0.86809146 -0.3990501 -0.2749116
0000d0 e0 cf 21 c0 dd 43 05 c0 c2 5f 82 bd 55 ba 80 c0
       -2.5283127 -2.082267 -0.063659206 -4.0227456
0000e0 2d 51 64 3f 6f ef e9 be 44 90 5b bd d3 a0 90 bf
       0.89186364 -0.45690486 -0.05360438 -1.129908
0000f0 b3 7f 12 3f eb fd 2b 40 d0 ad 7d c0 f9 2d 44 40
       0.57226104 2.687373 -3.9637337 3.065306
000100 7c 0a 1c c0 5d c4 67 3f b4 f2 03 40 0a e6 85 3f
       -2.43814 0.90534 2.0616884 1.0460827
000110 6d c2 de be 52 b4 27 bf c0 03 b1 bf 1f c8 43 c0
       -0.4350771 -0.6550952 -1.382927 -3.0590894
000120 bf 0f 8c 3f 58 52 e7 3e 1e f6 cb be 4b dd ef bf
       1.0942305 0.4518001 -0.3983621 -1.8739408
000130 98 1d 15 40 69 b3 01 be 65 c6 92 c0 bb 8f ea bd
       2.3299313 -0.12666096 -4.586718 -0.11453196
000140 a6 f2 4f c0 2c 7a 00 bf b5 95 8e 40 d2 7b 9d 3f
       -3.249185 -0.5018642 4.455775 1.2303412
000150 5a 0f da bf 68 9e da 3f 49 d3 e4 bf b2 fa 98 be
       -1.7035935 1.7079592 -1.7876979 -0.29878765
000160 e7 df 10 40 fd 0b c2 3f a0 e4 ab 3e 30 89 e7 3f
       2.263666 1.5159909 0.33572865 1.8088741
000170 3c 49 e8 be 8b 7f 58 be 1a c9 cf 3e 5d ef c1 3f
       -0.45368373 -0.21142404 0.40583116 1.5151173
000180 7f 68 43 40 a9 59 01 c0 32 3c 86 40 56 d3 83 be
       3.053253 -2.0210974 4.194848 -0.25747174
000190 42 c9 96 bf b4 41 da bf 26 f0 bb bf ba 1d ad bf
       -1.1780169 -1.7051301 -1.4682662 -1.3524697
0001a0 7a 58 79 bf 1a dd c2 bf 8c 3c 3e 3f f1 79 4a be
       -0.9740063 -1.5223725 0.7431114 -0.1977308
0001b0 ac ef 89 bf 23 44 a8 3f 46 cd 4c be c3 fb 04 40
       -1.0776267 1.3145794 -0.2000018 2.0778663
0001c0 f3 70 06 bf 07 79 95 bf 5a 94 17 bf 1f 50 65 be
       -0.52516097 -1.167756 -0.5921074 -0.22393845
0001d0 76 02 95 bf c4 4d 82 c0 19 c7 69 bf 1d 50 82 be
       -1.1641376 -4.071993 -0.91319424 -0.25451747
0001e0 51 ba 61 c0 ce f2 d1 bf 72 82 0b bf 7c 31 f7 bf
       -3.5269969 -1.6402223 -0.5449592 -1.9311976
0001f0 6b db a9 bf 48 4f 19 40 ee 75 f2 3f 39 a4 f7 be
       -1.3270086 2.395464 1.8942239 -0.4836748

net.2.weight f4 [128, 128]
000000 77 5f 47 c0 1c 46 73 be dc 7d 54 c0 a5 df c6 3d
       -3.1152017 -0.23757213 -3.3201818 0.097106256
000010 80 2e ab bb d8 1f c9 bf 4e f2 d4 3e 99 6b 5e bd
       -0.005224049 -1.5712843 0.41591114 -0.054301832
000020 db 12 11 c0 f4 52 22 3e be 0d 1e 3d 86 5b 64 3e
       -2.2667758 0.15851957 0.038587324 0.22300538
000030 74 0d f5 3c e9 ed 88 be 0f 44 6c 3c 1b 3b ae 3f
       0.029913642 -0.2674401 0.014420523 1.3611788
000040 3b cf 96 bf c5 dc 51 bd e5 3f 15 3e 51 44 9b bf
       -1.1781992 -0.051235933 0.14575155 -1.2130224
000050 aa 6d 9f bf ef 6b 1d c0 10 04 44 3e ab ba 7e bc
       -1.2455342 -2.4597127 0.19142175 -0.015547435
000060 df 32 8e bd 3c 47 92 be 95 27 a8 bd 9a 50 08 c0
       -0.06943297 -0.28569973 -0.08210675 -2.1299195
000070 cd f1 b2 bd 6a 24 b7 bf 02 ab 5e bf ee 9f b3 bf
       -0.08737526 -1.4307988 -0.8697969 -1.4033182
000080 1c 62 ac bd d2 81 87 3e 90 20 a7 3d 39 4c af 3e
       -0.084171504 0.26466233 0.08160508 0.3423784
000090 71 66 0f be 7c ac 78 3f d5 21 90 3f 26 68 92 3d
       -0.14003922 0.9713819 1.1260325 0.07148771
0000a0 1a 09 50 3e a6 ed 37 3e 8a 65 11 bf bf d5 60 3e
       0.20315972 0.1796175 -0.5679556 0.21956538
0000b0 c5 27 a7 3e d7 3e 63 c0 c1 8b 80 bf 5b 9c 09 bf
       0.3264753 -3.5507104 -1.004265 -0.53754205
0000c0 48 85 cc be 23 aa 11 be 82 df b6 be b0 11 b5 bf
       -0.39945436 -0.14225058 -0.35717398 -1.4146023
0000d0 1f e9 b4 be c5 6a 0c bf 17 84 41 bc 8f 6b 34 c0
       -0.35334107 -0.5485042 -0.011811278 -2.8190649
0000e0 7e fb b8 3e 45 0d 9e bc cd 56 6b 3d 88 aa 7c 3e
       0.36129373 -0.019293437 0.057455827 0.24674428
0000f0 e9 d8 4a 3f 6c 36 11 c0 50 1c 36 3e 14 75 00 bf
       0.7923723 -2.2689466 0.17784238 -0.5017865
000100 7f 37 2e 3e 66 32 5a c0 55 18 b2 c0 92 92 26 bf
       0.17013358 -3.409326 -5.56547 -0.650674
000110 90 b0 ac 3d db e1 66 3f 91 6a f0 3d 2c 88 a6 3e
       0.08432114 0.9018838 0.11739076 0.32525766
000120 f7 fe 23 3f 2a 6c d5 3f 40 e6 ad bc 7c 90 3b 3d
       0.6406092 1.6673634 -0.021227956 0.045792088
000130 8a ac 1b be 22 b5 ac 3c bd 3b a6 bf f8 36 24 3d
       -0.15202537 0.021082465 -1.2986981 0.040091485
000140 f8 28 10 40 2d 48 7e bd 54 8a df 3e fd a5 5e 40
       2.2525005 -0.06208055 0.43660223 3.4788811
000150 93 da ad bd 0d 78 7b be 51 24 23 c0 c7 60 67 3d
       -0.08488955 -0.24557514 -2.5490916 0.05648878
000160 49 9b d9 bd 3d 3e a8 3c 64 91 cd bc 77 15 2d bf
       -0.106253214 0.02053749 -0.025093742 -0.6761088
000170 49 42 88 3d f0 e3 e6 3c 9c cf 3a be 61 fd ff bf
       0.06653268 0.028184861 -0.18243259 -1.99992
000180 94 00 8d bf 32 28 e8 3e 6e 16 6a be 42 a7 86 3b
       -1.1015801 0.45343167 -0.22860119 0.004109294
000190 44 ea 38 3d 0a d9 63 3f fe 78 08 c0 c9 91 15 3f
       0.045145288 0.8900305 -2.1323848 0.58425575
0001a0 8e 60 87 bf 41 ca b0 bf 83 78 29 c0 89 c3 89 bd
       -1.0576341 -1.3811723 -2.6479805 -0.067267485
0001b0 fa 26 96 bf f5 12 53 bf 59 0a 9f bd c3 62 5b 3e
       -1.1730645 -0.824508 -0.077656455 0.21424393
0001c0 b3 76 90 3d ce 37 54 bf 85 6e 74 bf d4 f1 6e bd
       0.0705389 -0.8289765 -0.9548114 -0.058336094
0001d0 b1 40 b7 bf 09 7a 59 3f 77 ff ea 3c ca 2d ac bd
       -1.4316617 0.84951836 0.028686268 -0.08407171
0001e0 20 88 9d 3c 6f 21 3f c0 83 6a aa be 33 23 74 3e
       0.019229949 -2.9864156 -0.33284387 0.23841552
0001f0 6f 9e 85 3f 1d 27 40 bf ba ee 88 3f bc 88 c3 3c
       1.0438975 -0.7505968 1.0697854 0.023868911
000200 80 9f c2 bd 8f b1 93 bd bd 69 8e bc fc 6a a9 bd
       -0.095030785 -0.07211601 -0.017384404 -0.08272359
000210 ec 76 55 3d d4 67 da bd 91 bb 75 3d 62 52 9b 3a
       0.052115366 -0.10664335 0.05999333 0.0011850114
000220 7d f3 a5 3d 6f 33 de bd a2 f0 55 bd 2f 34 ca bd
       0.08103082 -0.10849654 -0.05223144 -0.098732345
000230 f6 6c 93 3c 06 a2 9e bd 93 91 61 3d ff 8e 53 3d
       0.017996293 -0.07745747 0.05507047 0.051650044
000240 61 80 97 bd b1 9c 81 3d 8d d2 04 be f4 21 2b 3c
       -0.07397533 0.06328715 -0.12970944 0.010445107
000250 3e ab 81 bd ee fc 55 3c 31 f9 89 bd 9f c1 8d 3d
       -0.0633149 0.013060791 -0.067369826 0.06921696
000260 5c ca 6f 3d 08 52 4b bd 09 9f 6b 39 1e 58 79 bd
       0.058542594 -0.049638778 0.00022470592 -0.06087505
000270 0f 35 20 3d 49 47 98 bd 53 5e b3 3c 0e 1c fd bd
       0.0391131 -0.074354716 0.021895563 -0.12358867
000280 9d 93 a4 3d b3 a2 8f 3b 54 7a 97 bd f3 d4 0e bd
       0.080359675 0.004383409 -0.07396379 -0.034871053
000290 e3 0e b0 3d 6d 18 9c bd e8 72 50 bd ab 91 2c 3d
       0.085965894 -0.07621846 -0.050890833 0.042131107
0002a0 ea 6a 59 bc 5c 56 5a bc 42 29 a4 bc 31 df ad 3d
       -0.013270119 -0.013326254 -0.020039205 0.08489836
0002b0 67 fb 95 3c f1 f5 af 3c 85 33 77 bd e4 3b 91 bd
       0.018308355 0.021479579 -0.060351867 -0.07091501
0002c0 e4 c3 16 bd b9 48 85 3d fb 8b 5e bd a9 a9 90 3d
       -0.03680791 0.06508011 -0.054332715 0.0706361
0002d0 ac ac dd bd 27 8a 91 bd 4f 3a 8c bc 30 4b 0a be
       -0.1082395 -0.071064286 -0.017117647 -0.13505244
0002e0 02 42 85 bc 4a 9f 78 bd 36 1e 56 bd b4 fb 01 bc
       -0.016266827 -0.060698785 -0.052274905 -0.007933546
0002f0 44 1f eb bd ef 1b e7 3c 02 ce db bc 41 55 99 bd
       -0.11480573 0.028211562 -0.02683163 -0.07486964
000300 13 2c e2 bc 5b 52 d5 3c ce 50 49 bd 48 72 07 3b
       -0.027608907 0.026040247 -0.049149327 0.0020667482
000310 11 b8 a9 bc af 66 b0 bd 79 89 60 bd 5f 87 00 be
       -0.020717653 -0.08613335 -0.054818604 -0.1255164
000320 30 99 2c 3d a8 29 7a 3d 02 3e 0c 3d 71 5f 84 bd
       0.04213828 0.061074883 0.034238823 -0.064635165
000330 bb f6 d9 bd 40 c2 7b bd 0f 83 e5 bd 98 5c 4d 3d
       -0.10642763 -0.061464548 -0.11206638 0.050137132
000340 7e bd 2e ba 01 18 29 bd d5 a6 9f bd 42 32 9d bd
       -0.000666581 -0.041282658 -0.077954926 -0.076756015
000350 d9 8b 0a be 77 aa 75 3c d5 e0 b1 bd 2f bf b1 bd
       -0.1352991 0.014994255 -0.086854614 -0.086790435
000360 d6 74 e5 bc ff 79 04 3c 62 17 8c 3d 2b 5f ea bd
       -0.028009813 0.008085727 0.068403974 -0.11443933
000370 62 dc 27 bd 88 21 f6 3c f9 e5 ef bd 0f c1 0c be
       -0.040981658 0.030045286 -0.11713786 -0.13745521
000380 9a e8 08 be 68 4e 5c 3d 7e e1 24 bd 9a d9 ab 3d
       -0.1336998 0.05378571 -0.04025411 0.083911136
000390 a8 ab e3 bd e6 16 b8 3b 8b 86 ba bd 24 25 38 bd
       -0.11116725 0.005617964 -0.09107693 -0.044957295
0003a0 3f c8 50 bd c6 df 87 bc 74 11 43 bd 70 46 98 bd
       -0.05097222 -0.016586196 -0.047624066 -0.0743531
0003b0 9b c9 5c bd cf 16 2f 3d 20 69 9c 3d b4 08 ce bd
       -0.053903203 0.04274636 0.076372385 -0.10060254
0003c0 57 95 91 bd 46 6c 8a bd 10 76 32 bd 98 64 55 bc
       -0.071085624 -0.06758933 -0.043569624 -0.013024472
0003d0 a3 59 ee 3c e8 a8 a2 3c 64 a8 d1 bd aa f3 1c bd
       0.029095476 0.019855931 -0.10237196 -0.038318314
0003e0 81 36 81 bc d5 c8 17 3d 4c 0b ed bd 9f ed 52 bd
       -0.01577306 0.037056763 -0.1157442 -0.051496144
0003f0 7e 7d b4 3d 4c 6c e5 bd ee db 27 bd 10 88 89 bc
       0.08812998 -0.112022966 -0.040981226 -0.016788512

net.2.bias f4 [128]
000000 78 7a 31 bd 28 40 e0 3c 54 0f 8e b9 31 bb ef bd
       -0.043329686 0.027374342 -0.0002709577 -0.11705626
000010 39 8f 73 ba 29 1a af bd 20 5c 9d bd d5 6d c1 bd
       -0.0009291056 -0.085499115 -0.07683587 -0.09444777
000020 1b 95 0e 3d 0d 0c 99 3f 1f 4d ce bd 78 43 08 3b
       0.034810167 1.1956803 -0.100733034 0.0020792168
000030 b4 8c 54 3f 5c a0 55 bc ef d8 a4 bd 89 0b 8a bf
       0.83027196 -0.013038721 -0.08049189 -1.078477
000040 f5 f2 b1 ba 72 db ac bd 21 42 48 bd 27 c4 4d bd
       -0.0013576435 -0.08440293 -0.04889119 -0.050235894
000050 61 81 52 bd 6f c9 c7 bd 2a b6 4f bc ed 86 52 be
       -0.051392917 -0.09755217 -0.012677709 -0.20559283
000060 1b dc 71 bd f2 d3 fa bd 2d 83 00 3d b8 90 13 3e
       -0.0590478 -0.122474566 0.0313751 0.14410675
000070 b4 71 b2 bd b9 05 85 3f 0a bc c4 be fa 5d 0a bd
       -0.087130934 1.0392371 -0.38424712 -0.03378103
000080 1f 33 68 bd dc 31 8a be 2f e7 05 3e c0 7a 60 be
       -0.056689378 -0.26991165 0.13076471 -0.21921825
000090 78 29 48 3e 67 76 59 bd e5 bb 96 bd 15 2f 42 bd
       0.19547069 -0.053091433 -0.07360057 -0.047408182
0000a0 bc 0c 63 bd d8 e7 1b bc 9e 72 d3 bc 7a 69 e2 bd
       -0.055432066 -0.009515725 -0.02581149 -0.11055274
0000b0 02 86 dc bd 1a 91 7e bf 54 e4 19 bd 3c c8 a3 bd
       -0.107677475 -0.9944016 -0.037571266 -0.07997176
0000c0 e4 a7 05 be 57 8a 31 bd a1 27 bd bf f4 69 09 be
       -0.13052326 -0.04334482 -1.4777719 -0.13419324
0000d0 cf 7e 08 bd 02 bf 9b 3f dc c9 4c bc a3 3e 1d 3e
       -0.03332406 1.2167666 -0.012499299 0.15355925
0000e0 1d 22 53 bd 10 6b 7e 3d a0 d9 16 3f 20 90 63 be
       -0.051546205 0.06211382 0.5892582 -0.22222948
0000f0 68 ef 86 bd ca 7f 16 3f 29 0d 65 3f a1 94 af bd
       -0.06588632 0.5878874 0.89473206 -0.085732706
000100 fe 28 e5 bc 9c d4 81 3c 8b 12 0a be 2f 04 3c bf
       -0.027973648 0.01584845 -0.13483636 -0.73443884
000110 89 9d fa be a4 34 ab 3c d7 b1 10 3c 93 cd 15 bf
       -0.48948315 0.020899124 0.008831463 -0.58516806
000120 b3 28 bf bd c7 52 d2 3c cf b8 95 bf c3 79 7e bd
       -0.09333935 0.025674237 -1.1697024 -0.06212784
000130 b9 b7 e2 3c eb 6c ca bd be b2 9c bf 06 04 a6 3f
       0.027675496 -0.09884056 -1.2242048 1.2969978
000140 62 2d cc bd ea f3 fa bc 1b e2 00 be da d3 96 be
       -0.099695936 -0.030633885 -0.12586252 -0.29458505
000150 1e ec 15 bc c6 b2 79 bd 6e cb c6 bc f1 f5 7e 3f
       -0.009150533 -0.060961507 -0.024266925 0.99594027
000160 f8 da 7f bd 7e 1d db ba 33 39 50 bc bd 9e 8f bd
       -0.062464684 -0.0016717163 -0.01270895 -0.07012699
000170 4a fb c0 bc dc 7d dd bd f2 d7 6c be e8 67 81 bb
       -0.023557324 -0.108150214 -0.23129252 -0.003949154
000180 04 b0 81 bc bf 82 c6 bd 4e d8 4a 3c c3 ad 8b bd
       -0.015831001 -0.096929066 0.012380673 -0.06820252
000190 8a b8 07 bc 18 dd f3 3d d1 34 1d 3f 46 eb 04 be
       -0.008283744 0.11907405 0.61408716 -0.12980375
0001a0 a3 9d 46 bd 6b 1a 3d 3e ff ff 45 3d 3d a5 5d bd
       -0.048490178 0.18467109 0.04833984 -0.05411266
0001b0 85 56 5a bd a2 b8 a4 bd 72 b4 c9 3c c4 78 13 3d
       -0.053305168 -0.080430284 0.024622176 0.036003843
0001c0 de d3 03 3d f3 44 dc bd b2 8c a0 bd 33 4d 13 3e
       0.032184474 -0.107553385 -0.078393355 0.14384918
0001d0 d5 d9 23 3d c6 93 99 3a 81 c8 65 be a2 ef 35 be
       0.040002663 0.0011717014 -0.22439767 -0.17767194
0001e0 c1 d6 e8 3f 5e 31 f0 bd a0 c7 39 bf d0 7f 56 bd
       1.8190538 -0.11728166 -0.7257023 -0.052367985
0001f0 95 d8 e8 bc 1f f3 68 bf d9 de 24 3d 63 a4 03 be
       -0.028423587 -0.90995973 0.040251587 -0.12855677

net.4.weight f4 [2, 128]
000000 df db 86 3f 6b 7e 01 bb 00 fc 3c 3f b3 a9 59 3c
       1.0535849 -0.001975919 0.7382202 0.013285088
000010 84 60 07 3f f0 20 45 bc 79 94 63 3c c5 c7 01 3d
       0.52881646 -0.012031779 0.013890379 0.031684656
000020 6c 64 8c 3b de 81 2e c1 06 41 5b 3c 09 d7 12 3d
       0.004284432 -10.906706 0.013382202 0.035849605
000030 cd 33 40 40 5b 72 97 bc b7 8d a2 3c fb c5 94 40
       3.0031617 -0.018487146 0.019842966 4.6491675
000040 d3 0e 2a bd 1c 7e a0 3c 35 8b a5 3c 65 3f c5 bc
       -0.041518044 0.019591384 0.02020798 -0.02407808
000050 d5 23 be 3c 94 b1 0c 3f 1b 78 9b bc da 4d 3c c0
       0.023210445 0.5495846 -0.01897817 -2.9422517
000060 db b0 22 3c c0 6e e4 3f 70 67 e3 3e 73 92 38 3f
       0.009929861 1.7846298 0.44414854 0.72098464
000070 16 3f f0 3b fc d6 6a 40 6f 49 5c c0 69 e3 fc bf
       0.007331739 3.6693716 -3.441982 -1.97569
000080 82 0c 4b bc 01 cb 3a 3f d5 9e 82 be ee 31 50 3f
       -0.012393119 0.7296601 -0.25511804 0.81326187
000090 27 51 ab bf 30 dc ca 3c 88 47 05 bc b2 22 f6 bc
       -1.3384141 0.024763197 -0.00813473 -0.03004584
0000a0 0a 05 09 bc b2 28 5f 3e 6c 94 17 3c bc b7 a3 bc
       -0.008363018 0.21792868 0.009251695 -0.019985072
0000b0 1a 08 9f 3d f1 9a 3e c0 7f e3 32 bd 33 6f 0e bd
       0.07765217 -2.9782069 -0.04367399 -0.034774017
0000c0 32 3b a8 bd 73 41 c8 bc 96 43 01 c1 75 b4 82 3c
       -0.082144156 -0.024445271 -8.079 0.01595519
0000d0 29 99 a0 bc eb 2b a4 3f 6e f6 99 3c 8f 8a a6 bf
       -0.019604282 1.2825903 0.018794265 -1.3011035
0000e0 44 94 ae 3d 49 2b 00 bd 7d d0 db 3e 21 76 fa 3e
       0.08524373 -0.03129128 0.429325 0.4891825
0000f0 78 0a 12 bb b6 20 39 bf db bf 2a 3e 34 f0 2a 3d
       -0.0022284072 -0.7231554 0.1667475 0.04173298
000100 36 ab 45 bd 0e 65 a7 bc 7c 72 f4 3c 58 db 12 3d
       -0.048258983 -0.020433929 0.029839747 0.035853714
000110 e5 ba dc 40 3b c8 ce 3f 9b 28 9a 3b 4c 57 65 bf
       6.8978143 1.6154855 0.0047045476 -0.8958633
000120 18 a0 65 bd 29 3a a2 bd b6 77 10 be 66 5f 2f 3d
       -0.05606088 -0.079212494 -0.14108166 0.04281559
000130 a1 4a 21 bc b4 16 ba bc a8 2d 1c c0 30 dd c4 bf
       -0.009844453 -0.022715904 -2.4402866 -1.5380001
000140 87 ce 3d bd 76 94 c0 bc e4 ca 98 3c e0 fc 27 3f
       -0.046339538 -0.023508292 0.018651433 0.6562023
000150 64 b1 3c 3d 5a c4 b1 bc c8 70 0d be c0 71 84 3f
       0.04606761 -0.021700073 -0.13812554 1.0347214
000160 35 10 3a bc 92 ab 97 bd 9a 9b ca bc 86 33 6e bc
       -0.011356403 -0.07405771 -0.0247324 -0.014538651
000170 32 7f 00 bd 23 94 86 3d 70 0a 82 c0 72 86 85 bd
       -0.031371303 0.065712236 -4.063774 -0.06519784
000180 c6 12 3a 3f 61 79 6a bc df bb bf 3c 7d 6b 3d bb
       0.72684896 -0.014311166 0.023405014 -0.002890318
000190 91 23 87 bd 14 97 cc 3d 32 c5 07 40 73 5b 15 3f
       -0.06598581 0.09989753 2.1214108 0.58342665
0001a0 6a 9b 7f 3c 92 80 21 c0 8d 23 94 bd 66 47 13 bc
       0.015601018 -2.5234723 -0.07233343 -0.008989191
0001b0 29 cd ba bc 0e 82 2f 3d 8c c9 e0 bc 6a c9 17 3c
       -0.022802906 0.04284864 -0.027439855 0.009264329
0001c0 1a 48 3c bd d4 65 26 3d 87 37 c1 bc ca 78 fa be
       -0.0459672 0.040624455 -0.023586048 -0.4892028
0001d0 5b 54 64 3f 20 b3 0f 3f 00 31 8a 3f e2 17 e4 3f
       0.89191216 0.561327 1.0796204 1.7819788
0001e0 2a 00 3c bf 78 86 a2 bd 45 83 e2 3f ad 8e ff 3c
       -0.7343775 -0.07935804 1.769631 0.031195963
0001f0 f9 13 9c bc d9 f4 11 40 f3 eb 3f bd 7c bf 26 b8
       -0.019052492 2.2805693 -0.046855878 -3.9755818e-05
000200 9e c8 b7 3f 3a 5e a8 bd 0a 52 3a 3e 2a d0 70 3c
       1.4358099 -0.08221097 0.18195358 0.014698068
000210 46 5d bf be 3f dc 9b 3d 09 28 38 bb 66 e5 83 bd
       -0.3737585 0.07610368 -0.0028100035 -0.06440239
000220 6c 1f 90 bd 32 4e 1b c1 52 49 24 bc 69 51 fe bc
       -0.07037243 -9.706591 -0.010027247 -0.031044679
000230 92 73 b4 40 fe cc fc bc c2 4e 6b bd 29 cb b8 40
       5.6391077 -0.030859467 -0.057448156 5.7748
000240 cf 1c a3 3d 82 ff 1b 3d b5 fb 44 3d ae 9c 05 bd
       0.07964479 0.038085468 0.04809161 -0.032620125
000250 83 e7 57 bd 07 99 4b 3f fb 58 cb bc d9 44 02 c1
       -0.05271102 0.79530376 -0.024822703 -8.1418085
000260 d3 7e fd bb 19 4a ad 3f 25 02 44 40 42 63 2b 3f
       -0.007736066 1.3538238 3.062631 0.6694833
000270 b9 73 cc 3d 8f 20 0e 40 5b 6a 30 c0 a5 ba c8 3f
       0.0998301 2.2207372 -2.7564914 1.5681959
000280 66 70 e8 bc 6f 67 da 3e 30 5a e1 bf 08 ac 95 3e
       -0.028373908 0.4265704 -1.7605648 0.29232812
000290 76 1d 62 c0 2c 54 17 3c ab b5 e9 bc 0e 75 c6 bc
       -3.5330482 0.009236377 -0.028529009 -0.024225738
0002a0 77 e4 82 bc ed a6 86 3f 5c ae b1 bd 65 20 9b bc
       -0.015978081 1.0519692 -0.086758345 -0.018936345
0002b0 bd 10 11 bc 42 3b 2d 3e 17 fd 65 3d 2e b7 72 bc
       -0.008854088 0.16917136 0.05614957 -0.014814181
0002c0 73 f2 9a 3c ac bc 2d 3b 66 fe 01 c0 a0 4b f3 bc
       0.018914437 0.0026510162 -2.0311522 -0.029699147
0002d0 d9 ec 60 3d 7e d2 53 40 41 03 62 bd 42 75 96 c0
       0.054913376 3.3097224 -0.055178884 -4.7018137
0002e0 d1 9c 14 bc 48 cc 36 bd 24 00 60 3f 03 70 4d 3f
       -0.009070591 -0.04462841 0.87500215 0.8024904
0002f0 a6 a8 c0 3d 1e e4 4b c0 be 02 2a 40 ef f0 7f bd
       0.09407167 -3.1857982 2.6564174 -0.06248563
000300 04 93 82 3d 41 07 8d bd 1e 1e 82 bc f2 d5 0b c0
       0.06375697 -0.06886149 -0.015883502 -2.1849332
000310 f7 89 df 40 0b 98 40 40 2d 42 fc 3b d6 8d ef bf
       6.9855914 3.00928 0.0076983185 -1.871516
000320 a0 68 1b b7 bc 0b 82 bd 5e c4 88 bf a4 5e 9a 3d
       -9.26308e-06 -0.063498944 -1.0684927 0.075375825
000330 b2 42 50 3d c2 17 d2 3c b7 dc ce bf ec 90 93 bf
       0.050844856 0.025646094 -1.6161107 -1.1528602
000340 f3 eb ea 3c 73 f8 a1 bd 51 e5 f1 bc 1f 1f 81 3e
       0.028676962 -0.07908716 -0.029528292 0.25219056
000350 51 e0 84 3c 6d 92 b3 bb 97 ec 2d bc 2c 06 21 c0
       0.016220244 -0.005480102 -0.010615489 -2.5160017
000360 8e 3b 7b 3d b8 8a c4 bc 03 06 8d bc 31 cc 86 3d
       0.061336093 -0.023991928 -0.01721478 0.06581915
000370 37 5b 5a 3b f7 04 4c bc 5e 6d 50 c0 1c 5c b1 3d
       0.0033318528 -0.012452356 -3.2566752 0.086601466
000380 8c 0f 93 3f ef 89 08 3d 5b a2 03 bd 1c fa 3c 3d
       1.148912 0.03333467 -0.032137256 0.04613696
000390 7f d5 13 3c a8 8e 1c c0 68 b2 91 40 32 1f 7b 3f
       0.009023069 -2.446207 4.553028 0.98094475
0003a0 5f ee 96 bd 81 8d a3 c0 af eb cd 3b df 62 10 bd
       -0.073696844 -5.1110234 0.006284199 -0.03525054
0003b0 84 39 18 bd a3 98 14 3c df b2 64 3c 06 eb 91 3d
       -0.037164226 0.009069595 0.013958662 0.07124905
0003c0 27 74 89 3c 84 3e ed 3c d7 b7 b0 3b a4 ea 1c c0
       0.016779019 0.028960474 0.005393009 -2.4518213
0003d0 5e 3d bf 3f 3a a0 4e 3f 26 11 4a 3f 05 17 de 3f
       1.4940603 0.80713236 0.78932416 1.7350775
0003e0 03 85 de bd 32 45 9d 3c 22 bc f0 3f ed d2 40 3d
       -0.10865214 0.019198034 1.8807414 0.047076155
0003f0 7f 16 01 3d c4 99 65 3d d5 8a 83 3d 15 4c 3b 3c
       0.031515595 0.056054845 0.064229645 0.011431714

net.4.bias f4 [2]
000000 97 3b e4 3e 16 5b 06 40
       0.44576713 2.0993094
